…
I0414 02:37:15.883520 12560 net.cpp:294] The NetState phase (0) differed from the phase (1) specified by a rule in layer person_accuracy
I0414 02:37:15.883534 12560 net.cpp:294] The NetState phase (0) differed from the phase (1) specified by a rule in layer emotion_accuracy
I0414 02:37:15.883896 12560 net.cpp:51] Initializing net from parameters: 
name: "AlexNet"
state {
  phase: TRAIN
  level: 0
  stage: ""
}
layer {
  name: "data"
  type: "HDF5Data"
  top: "data"
  top: "personclass"
  top: "emotionclass"
  include {
    phase: TRAIN
  }
  hdf5_data_param {
    source: "../../Source/AlexPretrain/all_info_large_5emo_trainSession.txt"
    batch_size: 64
    shuffle: true
  }
}
layer {
  name: "conv1"
  type: "Convolution"
  bottom: "data"
  top: "conv1"
  param {
    lr_mult: 1
    decay_mult: 1
  }
  param {
    lr_mult: 2
    decay_mult: 0
  }
  convolution_param {
    num_output: 96
    kernel_size: 11
    stride: 2
    weight_filler {
      type: "xavier"
      std: 0.01
    }
    bias_filler {
      type: "constant"
      value: 0
    }
  }
}
layer {
  name: "relu1"
  type: "ReLU"
  bottom: "conv1"
  top: "conv1"
}
layer {
  name: "norm1"
  type: "LRN"
  bottom: "conv1"
  top: "norm1"
  lrn_param {
    local_size: 5
    alpha: 0.0001
    beta: 0.75
  }
}
layer {
  name: "pool1"
  type: "Pooling"
  bottom: "norm1"
  top: "pool1"
  pooling_param {
    pool: MAX
    kernel_size: 3
    stride: 2
  }
}
layer {
  name: "conv2"
  type: "Convolution"
  bottom: "pool1"
  top: "conv2"
  param {
    lr_mult: 1
    decay_mult: 1
  }
  param {
    lr_mult: 2
    decay_mult: 0
  }
  convolution_param {
    num_output: 256
    pad: 2
    kernel_size: 5
    weight_filler {
      type: "xavier"
      std: 0.01
    }
    bias_filler {
      type: "constant"
      value: 0.1
    }
  }
}
layer {
  name: "relu2"
  type: "ReLU"
  bottom: "conv2"
  top: "conv2"
}
layer {
  name: "norm2"
  type: "LRN"
  bottom: "conv2"
  top: "norm2"
  lrn_param {
    local_size: 5
    alpha: 0.0001
    beta: 0.75
  }
}
layer {
  name: "pool2"
  type: "Pooling"
  bottom: "norm2"
  top: "pool2"
  pooling_param {
    pool: MAX
    kernel_size: 3
    stride: 2
  }
}
layer {
  name: "conv3"
  type: "Convolution"
  bottom: "pool2"
  top: "conv3"
  param {
    lr_mult: 1
    decay_mult: 1
  }
  param {
    lr_mult: 2
    decay_mult: 0
  }
  convolution_param {
    num_output: 384
    pad: 1
    kernel_size: 3
    weight_filler {
      type: "xavier"
      std: 0.01
    }
    bias_filler {
      type: "constant"
      value: 0
    }
  }
}
layer {
  name: "relu3"
  type: "ReLU"
  bottom: "conv3"
  top: "conv3"
}
layer {
  name: "conv4"
  type: "Convolution"
  bottom: "conv3"
  top: "conv4"
  param {
    lr_mult: 1
    decay_mult: 1
  }
  param {
    lr_mult: 2
    decay_mult: 0
  }
  convolution_param {
    num_output: 384
    pad: 1
    kernel_size: 3
    weight_filler {
      type: "xavier"
      std: 0.01
    }
    bias_filler {
      type: "constant"
      value: 0.1
    }
  }
}
layer {
  name: "relu4"
  type: "ReLU"
  bottom: "conv4"
  top: "conv4"
}
layer {
  name: "conv5"
  type: "Convolution"
  bottom: "conv4"
  top: "conv5"
  param {
    lr_mult: 1
    decay_mult: 1
  }
  param {
    lr_mult: 2
    decay_mult: 0
  }
  convolution_param {
    num_output: 256
    pad: 1
    kernel_size: 3
    weight_filler {
      type: "xavier"
      std: 0.01
    }
    bias_filler {
      type: "constant"
      value: 0.1
    }
  }
}
layer {
  name: "relu5"
  type: "ReLU"
  bottom: "conv5"
  top: "conv5"
}
layer {
  name: "pool5"
  type: "Pooling"
  bottom: "conv5"
  top: "pool5"
  pooling_param {
    pool: MAX
    kernel_size: 3
    stride: 2
  }
}
layer {
  name: "fc6_person"
  type: "InnerProduct"
  bottom: "pool5"
  top: "fc6_person"
  param {
    lr_mult: 1
    decay_mult: 1
  }
  param {
    lr_mult: 2
    decay_mult: 0
  }
  inner_product_param {
    num_output: 4096
    weight_filler {
      type: "xavier"
      std: 0.005
    }
    bias_filler {
      type: "constant"
      value: 0.1
    }
  }
}
layer {
  name: "relu6_person"
  type: "ReLU"
  bottom: "fc6_person"
  top: "fc6_person"
}
layer {
  name: "drop6_person"
  type: "Dropout"
  bottom: "fc6_person"
  top: "fc6_person"
  dropout_param {
    dropout_ratio: 0.5
  }
}
layer {
  name: "fc7_person"
  type: "InnerProduct"
  bottom: "fc6_person"
  top: "fc7_person"
  param {
    lr_mult: 1
    decay_mult: 1
  }
  param {
    lr_mult: 2
    decay_mult: 0
  }
  inner_product_param {
    num_output: 4096
    weight_filler {
      type: "xavier"
      std: 0.005
    }
    bias_filler {
      type: "constant"
      value: 0.1
    }
  }
}
layer {
  name: "relu7_person"
  type: "ReLU"
  bottom: "fc7_person"
  top: "fc7_person"
}
layer {
  name: "drop7_person"
  type: "Dropout"
  bottom: "fc7_person"
  top: "fc7_person"
  dropout_param {
    dropout_ratio: 0.5
  }
}
layer {
  name: "fc8_person"
  type: "InnerProduct"
  bottom: "fc7_person"
  top: "fc8_person"
  param {
    lr_mult: 1
    decay_mult: 1
  }
  param {
    lr_mult: 2
    decay_mult: 0
  }
  inner_product_param {
    num_output: 65
    weight_filler {
      type: "xavier"
      std: 0.01
    }
    bias_filler {
      type: "constant"
      value: 0
    }
  }
}
layer {
  name: "fc6_emotion"
  type: "InnerProduct"
  bottom: "pool5"
  top: "fc6_emotion"
  param {
    lr_mult: 1
    decay_mult: 1
  }
  param {
    lr_mult: 2
    decay_mult: 0
  }
  inner_product_param {
    num_output: 4096
    weight_filler {
      type: "xavier"
      std: 0.005
    }
    bias_filler {
      type: "constant"
      value: 0.1
    }
  }
}
layer {
  name: "relu6_emotion"
  type: "ReLU"
  bottom: "fc6_emotion"
  top: "fc6_emotion"
}
layer {
  name: "drop6_emotion"
  type: "Dropout"
  bottom: "fc6_emotion"
  top: "fc6_emotion"
  dropout_param {
    dropout_ratio: 0.5
  }
}
layer {
  name: "fc7_emotion"
  type: "InnerProduct"
  bottom: "fc6_emotion"
  top: "fc7_emotion"
  param {
    lr_mult: 1
    decay_mult: 1
  }
  param {
    lr_mult: 2
    decay_mult: 0
  }
  inner_product_param {
    num_output: 4096
    weight_filler {
      type: "xavier"
      std: 0.005
    }
    bias_filler {
      type: "constant"
      value: 0.1
    }
  }
}
layer {
  name: "relu7_emotion"
  type: "ReLU"
  bottom: "fc7_emotion"
  top: "fc7_emotion"
}
layer {
  name: "drop7_emotion"
  type: "Dropout"
  bottom: "fc7_emotion"
  top: "fc7_emotion"
  dropout_param {
    dropout_ratio: 0.5
  }
}
layer {
  name: "fc8_emotion"
  type: "InnerProduct"
  bottom: "fc7_emotion"
  top: "fc8_emotion"
  param {
    lr_mult: 1
    decay_mult: 1
  }
  param {
    lr_mult: 2
    decay_mult: 0
  }
  inner_product_param {
    num_output: 5
    weight_filler {
      type: "xavier"
      std: 0.01
    }
    bias_filler {
      type: "constant"
      value: 0
    }
  }
}
layer {
  name: "personClassloss"
  type: "SoftmaxWithLoss"
  bottom: "fc8_person"
  bottom: "personclass"
  top: "personClassloss"
}
layer {
  name: "emotionClassloss"
  type: "SoftmaxWithLoss"
  bottom: "fc8_emotion"
  bottom: "emotionclass"
  top: "emotionClassloss"
}
I0414 02:37:15.884078 12560 layer_factory.hpp:77] Creating layer data
I0414 02:37:15.884099 12560 net.cpp:84] Creating Layer data
I0414 02:37:15.884116 12560 net.cpp:380] data -> data
I0414 02:37:15.884145 12560 net.cpp:380] data -> personclass
I0414 02:37:15.884166 12560 net.cpp:380] data -> emotionclass
I0414 02:37:15.884187 12560 hdf5_data_layer.cpp:80] Loading list of HDF5 filenames from: ../../Source/AlexPretrain/all_info_large_5emo_trainSession.txt
I0414 02:37:15.946792 12560 hdf5_data_layer.cpp:94] Number of HDF5 files: 1
I0414 02:37:16.464262 12560 hdf5.cpp:32] Datatype class: H5T_FLOAT
I0414 02:38:02.627892 12560 hdf5.cpp:35] Datatype class: H5T_INTEGER
I0414 02:38:02.630699 12560 net.cpp:122] Setting up data
I0414 02:38:02.630755 12560 net.cpp:129] Top shape: 64 3 158 158 (4793088)
I0414 02:38:02.630771 12560 net.cpp:129] Top shape: 64 (64)
I0414 02:38:02.630785 12560 net.cpp:129] Top shape: 64 (64)
I0414 02:38:02.630796 12560 net.cpp:137] Memory required for data: 19172864
I0414 02:38:02.630815 12560 layer_factory.hpp:77] Creating layer conv1
I0414 02:38:02.630848 12560 net.cpp:84] Creating Layer conv1
I0414 02:38:02.630863 12560 net.cpp:406] conv1 <- data
I0414 02:38:02.630887 12560 net.cpp:380] conv1 -> conv1
I0414 02:38:02.634464 12560 net.cpp:122] Setting up conv1
I0414 02:38:02.634527 12560 net.cpp:129] Top shape: 64 96 74 74 (33644544)
I0414 02:38:02.634541 12560 net.cpp:137] Memory required for data: 153751040
I0414 02:38:02.634582 12560 layer_factory.hpp:77] Creating layer relu1
I0414 02:38:02.634604 12560 net.cpp:84] Creating Layer relu1
I0414 02:38:02.634618 12560 net.cpp:406] relu1 <- conv1
I0414 02:38:02.634634 12560 net.cpp:367] relu1 -> conv1 (in-place)
I0414 02:38:02.634655 12560 net.cpp:122] Setting up relu1
I0414 02:38:02.634670 12560 net.cpp:129] Top shape: 64 96 74 74 (33644544)
I0414 02:38:02.634681 12560 net.cpp:137] Memory required for data: 288329216
I0414 02:38:02.634693 12560 layer_factory.hpp:77] Creating layer norm1
I0414 02:38:02.634711 12560 net.cpp:84] Creating Layer norm1
I0414 02:38:02.634722 12560 net.cpp:406] norm1 <- conv1
I0414 02:38:02.634737 12560 net.cpp:380] norm1 -> norm1
I0414 02:38:02.634805 12560 net.cpp:122] Setting up norm1
I0414 02:38:02.634821 12560 net.cpp:129] Top shape: 64 96 74 74 (33644544)
I0414 02:38:02.634834 12560 net.cpp:137] Memory required for data: 422907392
I0414 02:38:02.634845 12560 layer_factory.hpp:77] Creating layer pool1
I0414 02:38:02.634861 12560 net.cpp:84] Creating Layer pool1
I0414 02:38:02.634874 12560 net.cpp:406] pool1 <- norm1
I0414 02:38:02.634888 12560 net.cpp:380] pool1 -> pool1
I0414 02:38:02.634950 12560 net.cpp:122] Setting up pool1
I0414 02:38:02.634966 12560 net.cpp:129] Top shape: 64 96 37 37 (8411136)
I0414 02:38:02.634977 12560 net.cpp:137] Memory required for data: 456551936
I0414 02:38:02.634989 12560 layer_factory.hpp:77] Creating layer conv2
I0414 02:38:02.635011 12560 net.cpp:84] Creating Layer conv2
I0414 02:38:02.635023 12560 net.cpp:406] conv2 <- pool1
I0414 02:38:02.635040 12560 net.cpp:380] conv2 -> conv2
I0414 02:38:02.642887 12560 net.cpp:122] Setting up conv2
I0414 02:38:02.642948 12560 net.cpp:129] Top shape: 64 256 37 37 (22429696)
I0414 02:38:02.642961 12560 net.cpp:137] Memory required for data: 546270720
I0414 02:38:02.642984 12560 layer_factory.hpp:77] Creating layer relu2
I0414 02:38:02.643004 12560 net.cpp:84] Creating Layer relu2
I0414 02:38:02.643018 12560 net.cpp:406] relu2 <- conv2
I0414 02:38:02.643033 12560 net.cpp:367] relu2 -> conv2 (in-place)
I0414 02:38:02.643051 12560 net.cpp:122] Setting up relu2
I0414 02:38:02.643066 12560 net.cpp:129] Top shape: 64 256 37 37 (22429696)
I0414 02:38:02.643077 12560 net.cpp:137] Memory required for data: 635989504
I0414 02:38:02.643090 12560 layer_factory.hpp:77] Creating layer norm2
I0414 02:38:02.643105 12560 net.cpp:84] Creating Layer norm2
I0414 02:38:02.643117 12560 net.cpp:406] norm2 <- conv2
I0414 02:38:02.643132 12560 net.cpp:380] norm2 -> norm2
I0414 02:38:02.643183 12560 net.cpp:122] Setting up norm2
I0414 02:38:02.643198 12560 net.cpp:129] Top shape: 64 256 37 37 (22429696)
I0414 02:38:02.643210 12560 net.cpp:137] Memory required for data: 725708288
I0414 02:38:02.643221 12560 layer_factory.hpp:77] Creating layer pool2
I0414 02:38:02.643239 12560 net.cpp:84] Creating Layer pool2
I0414 02:38:02.643251 12560 net.cpp:406] pool2 <- norm2
I0414 02:38:02.643266 12560 net.cpp:380] pool2 -> pool2
I0414 02:38:02.643316 12560 net.cpp:122] Setting up pool2
I0414 02:38:02.643348 12560 net.cpp:129] Top shape: 64 256 18 18 (5308416)
I0414 02:38:02.643359 12560 net.cpp:137] Memory required for data: 746941952
I0414 02:38:02.643371 12560 layer_factory.hpp:77] Creating layer conv3
I0414 02:38:02.643390 12560 net.cpp:84] Creating Layer conv3
I0414 02:38:02.643417 12560 net.cpp:406] conv3 <- pool2
I0414 02:38:02.643434 12560 net.cpp:380] conv3 -> conv3
I0414 02:38:02.656517 12560 net.cpp:122] Setting up conv3
I0414 02:38:02.656581 12560 net.cpp:129] Top shape: 64 384 18 18 (7962624)
I0414 02:38:02.656594 12560 net.cpp:137] Memory required for data: 778792448
I0414 02:38:02.656620 12560 layer_factory.hpp:77] Creating layer relu3
I0414 02:38:02.656641 12560 net.cpp:84] Creating Layer relu3
I0414 02:38:02.656654 12560 net.cpp:406] relu3 <- conv3
I0414 02:38:02.656671 12560 net.cpp:367] relu3 -> conv3 (in-place)
I0414 02:38:02.656688 12560 net.cpp:122] Setting up relu3
I0414 02:38:02.656702 12560 net.cpp:129] Top shape: 64 384 18 18 (7962624)
I0414 02:38:02.656714 12560 net.cpp:137] Memory required for data: 810642944
I0414 02:38:02.656725 12560 layer_factory.hpp:77] Creating layer conv4
I0414 02:38:02.656746 12560 net.cpp:84] Creating Layer conv4
I0414 02:38:02.656757 12560 net.cpp:406] conv4 <- conv3
I0414 02:38:02.656772 12560 net.cpp:380] conv4 -> conv4
I0414 02:38:02.673728 12560 net.cpp:122] Setting up conv4
I0414 02:38:02.673795 12560 net.cpp:129] Top shape: 64 384 18 18 (7962624)
I0414 02:38:02.673807 12560 net.cpp:137] Memory required for data: 842493440
I0414 02:38:02.673828 12560 layer_factory.hpp:77] Creating layer relu4
I0414 02:38:02.673848 12560 net.cpp:84] Creating Layer relu4
I0414 02:38:02.673861 12560 net.cpp:406] relu4 <- conv4
I0414 02:38:02.673877 12560 net.cpp:367] relu4 -> conv4 (in-place)
I0414 02:38:02.673895 12560 net.cpp:122] Setting up relu4
I0414 02:38:02.673910 12560 net.cpp:129] Top shape: 64 384 18 18 (7962624)
I0414 02:38:02.673921 12560 net.cpp:137] Memory required for data: 874343936
I0414 02:38:02.673933 12560 layer_factory.hpp:77] Creating layer conv5
I0414 02:38:02.673952 12560 net.cpp:84] Creating Layer conv5
I0414 02:38:02.673964 12560 net.cpp:406] conv5 <- conv4
I0414 02:38:02.673980 12560 net.cpp:380] conv5 -> conv5
I0414 02:38:02.685365 12560 net.cpp:122] Setting up conv5
I0414 02:38:02.685439 12560 net.cpp:129] Top shape: 64 256 18 18 (5308416)
I0414 02:38:02.685452 12560 net.cpp:137] Memory required for data: 895577600
I0414 02:38:02.685479 12560 layer_factory.hpp:77] Creating layer relu5
I0414 02:38:02.685500 12560 net.cpp:84] Creating Layer relu5
I0414 02:38:02.685513 12560 net.cpp:406] relu5 <- conv5
I0414 02:38:02.685529 12560 net.cpp:367] relu5 -> conv5 (in-place)
I0414 02:38:02.685547 12560 net.cpp:122] Setting up relu5
I0414 02:38:02.685562 12560 net.cpp:129] Top shape: 64 256 18 18 (5308416)
I0414 02:38:02.685573 12560 net.cpp:137] Memory required for data: 916811264
I0414 02:38:02.685585 12560 layer_factory.hpp:77] Creating layer pool5
I0414 02:38:02.685600 12560 net.cpp:84] Creating Layer pool5
I0414 02:38:02.685611 12560 net.cpp:406] pool5 <- conv5
I0414 02:38:02.685626 12560 net.cpp:380] pool5 -> pool5
I0414 02:38:02.685679 12560 net.cpp:122] Setting up pool5
I0414 02:38:02.685694 12560 net.cpp:129] Top shape: 64 256 9 9 (1327104)
I0414 02:38:02.685706 12560 net.cpp:137] Memory required for data: 922119680
I0414 02:38:02.685717 12560 layer_factory.hpp:77] Creating layer pool5_pool5_0_split
I0414 02:38:02.685735 12560 net.cpp:84] Creating Layer pool5_pool5_0_split
I0414 02:38:02.685747 12560 net.cpp:406] pool5_pool5_0_split <- pool5
I0414 02:38:02.685762 12560 net.cpp:380] pool5_pool5_0_split -> pool5_pool5_0_split_0
I0414 02:38:02.685780 12560 net.cpp:380] pool5_pool5_0_split -> pool5_pool5_0_split_1
I0414 02:38:02.685828 12560 net.cpp:122] Setting up pool5_pool5_0_split
I0414 02:38:02.685843 12560 net.cpp:129] Top shape: 64 256 9 9 (1327104)
I0414 02:38:02.685858 12560 net.cpp:129] Top shape: 64 256 9 9 (1327104)
I0414 02:38:02.685868 12560 net.cpp:137] Memory required for data: 932736512
I0414 02:38:02.685899 12560 layer_factory.hpp:77] Creating layer fc6_person
I0414 02:38:02.685915 12560 net.cpp:84] Creating Layer fc6_person
I0414 02:38:02.685927 12560 net.cpp:406] fc6_person <- pool5_pool5_0_split_0
I0414 02:38:02.685942 12560 net.cpp:380] fc6_person -> fc6_person
I0414 02:38:03.734666 12560 net.cpp:122] Setting up fc6_person
I0414 02:38:03.734788 12560 net.cpp:129] Top shape: 64 4096 (262144)
I0414 02:38:03.734803 12560 net.cpp:137] Memory required for data: 933785088
I0414 02:38:03.734833 12560 layer_factory.hpp:77] Creating layer relu6_person
I0414 02:38:03.734860 12560 net.cpp:84] Creating Layer relu6_person
I0414 02:38:03.734876 12560 net.cpp:406] relu6_person <- fc6_person
I0414 02:38:03.734897 12560 net.cpp:367] relu6_person -> fc6_person (in-place)
I0414 02:38:03.734920 12560 net.cpp:122] Setting up relu6_person
I0414 02:38:03.734936 12560 net.cpp:129] Top shape: 64 4096 (262144)
I0414 02:38:03.734947 12560 net.cpp:137] Memory required for data: 934833664
I0414 02:38:03.734961 12560 layer_factory.hpp:77] Creating layer drop6_person
I0414 02:38:03.734977 12560 net.cpp:84] Creating Layer drop6_person
I0414 02:38:03.734989 12560 net.cpp:406] drop6_person <- fc6_person
I0414 02:38:03.735004 12560 net.cpp:367] drop6_person -> fc6_person (in-place)
I0414 02:38:03.735049 12560 net.cpp:122] Setting up drop6_person
I0414 02:38:03.735064 12560 net.cpp:129] Top shape: 64 4096 (262144)
I0414 02:38:03.735075 12560 net.cpp:137] Memory required for data: 935882240
I0414 02:38:03.735086 12560 layer_factory.hpp:77] Creating layer fc7_person
I0414 02:38:03.735103 12560 net.cpp:84] Creating Layer fc7_person
I0414 02:38:03.735116 12560 net.cpp:406] fc7_person <- fc6_person
I0414 02:38:03.735131 12560 net.cpp:380] fc7_person -> fc7_person
I0414 02:38:03.942345 12560 net.cpp:122] Setting up fc7_person
I0414 02:38:03.942418 12560 net.cpp:129] Top shape: 64 4096 (262144)
I0414 02:38:03.942432 12560 net.cpp:137] Memory required for data: 936930816
I0414 02:38:03.942459 12560 layer_factory.hpp:77] Creating layer relu7_person
I0414 02:38:03.942486 12560 net.cpp:84] Creating Layer relu7_person
I0414 02:38:03.942500 12560 net.cpp:406] relu7_person <- fc7_person
I0414 02:38:03.942519 12560 net.cpp:367] relu7_person -> fc7_person (in-place)
I0414 02:38:03.942538 12560 net.cpp:122] Setting up relu7_person
I0414 02:38:03.942551 12560 net.cpp:129] Top shape: 64 4096 (262144)
I0414 02:38:03.942562 12560 net.cpp:137] Memory required for data: 937979392
I0414 02:38:03.942574 12560 layer_factory.hpp:77] Creating layer drop7_person
I0414 02:38:03.942589 12560 net.cpp:84] Creating Layer drop7_person
I0414 02:38:03.942601 12560 net.cpp:406] drop7_person <- fc7_person
I0414 02:38:03.942615 12560 net.cpp:367] drop7_person -> fc7_person (in-place)
I0414 02:38:03.942651 12560 net.cpp:122] Setting up drop7_person
I0414 02:38:03.942665 12560 net.cpp:129] Top shape: 64 4096 (262144)
I0414 02:38:03.942677 12560 net.cpp:137] Memory required for data: 939027968
I0414 02:38:03.942687 12560 layer_factory.hpp:77] Creating layer fc8_person
I0414 02:38:03.942704 12560 net.cpp:84] Creating Layer fc8_person
I0414 02:38:03.942716 12560 net.cpp:406] fc8_person <- fc7_person
I0414 02:38:03.942731 12560 net.cpp:380] fc8_person -> fc8_person
I0414 02:38:03.947057 12560 net.cpp:122] Setting up fc8_person
I0414 02:38:03.947108 12560 net.cpp:129] Top shape: 64 65 (4160)
I0414 02:38:03.947120 12560 net.cpp:137] Memory required for data: 939044608
I0414 02:38:03.947140 12560 layer_factory.hpp:77] Creating layer fc6_emotion
I0414 02:38:03.947161 12560 net.cpp:84] Creating Layer fc6_emotion
I0414 02:38:03.947173 12560 net.cpp:406] fc6_emotion <- pool5_pool5_0_split_1
I0414 02:38:03.947192 12560 net.cpp:380] fc6_emotion -> fc6_emotion
I0414 02:38:04.997910 12560 net.cpp:122] Setting up fc6_emotion
I0414 02:38:04.998005 12560 net.cpp:129] Top shape: 64 4096 (262144)
I0414 02:38:04.998020 12560 net.cpp:137] Memory required for data: 940093184
I0414 02:38:04.998061 12560 layer_factory.hpp:77] Creating layer relu6_emotion
I0414 02:38:04.998091 12560 net.cpp:84] Creating Layer relu6_emotion
I0414 02:38:04.998138 12560 net.cpp:406] relu6_emotion <- fc6_emotion
I0414 02:38:04.998163 12560 net.cpp:367] relu6_emotion -> fc6_emotion (in-place)
I0414 02:38:04.998186 12560 net.cpp:122] Setting up relu6_emotion
I0414 02:38:04.998201 12560 net.cpp:129] Top shape: 64 4096 (262144)
I0414 02:38:04.998231 12560 net.cpp:137] Memory required for data: 941141760
I0414 02:38:04.998244 12560 layer_factory.hpp:77] Creating layer drop6_emotion
I0414 02:38:04.998260 12560 net.cpp:84] Creating Layer drop6_emotion
I0414 02:38:04.998271 12560 net.cpp:406] drop6_emotion <- fc6_emotion
I0414 02:38:04.998286 12560 net.cpp:367] drop6_emotion -> fc6_emotion (in-place)
I0414 02:38:04.998324 12560 net.cpp:122] Setting up drop6_emotion
I0414 02:38:04.998339 12560 net.cpp:129] Top shape: 64 4096 (262144)
I0414 02:38:04.998350 12560 net.cpp:137] Memory required for data: 942190336
I0414 02:38:04.998361 12560 layer_factory.hpp:77] Creating layer fc7_emotion
I0414 02:38:04.998378 12560 net.cpp:84] Creating Layer fc7_emotion
I0414 02:38:04.998390 12560 net.cpp:406] fc7_emotion <- fc6_emotion
I0414 02:38:04.998405 12560 net.cpp:380] fc7_emotion -> fc7_emotion
I0414 02:38:05.208053 12560 net.cpp:122] Setting up fc7_emotion
I0414 02:38:05.208147 12560 net.cpp:129] Top shape: 64 4096 (262144)
I0414 02:38:05.208163 12560 net.cpp:137] Memory required for data: 943238912
I0414 02:38:05.208190 12560 layer_factory.hpp:77] Creating layer relu7_emotion
I0414 02:38:05.208219 12560 net.cpp:84] Creating Layer relu7_emotion
I0414 02:38:05.208235 12560 net.cpp:406] relu7_emotion <- fc7_emotion
I0414 02:38:05.208256 12560 net.cpp:367] relu7_emotion -> fc7_emotion (in-place)
I0414 02:38:05.208276 12560 net.cpp:122] Setting up relu7_emotion
I0414 02:38:05.208290 12560 net.cpp:129] Top shape: 64 4096 (262144)
I0414 02:38:05.208302 12560 net.cpp:137] Memory required for data: 944287488
I0414 02:38:05.208313 12560 layer_factory.hpp:77] Creating layer drop7_emotion
I0414 02:38:05.208329 12560 net.cpp:84] Creating Layer drop7_emotion
I0414 02:38:05.208341 12560 net.cpp:406] drop7_emotion <- fc7_emotion
I0414 02:38:05.208355 12560 net.cpp:367] drop7_emotion -> fc7_emotion (in-place)
I0414 02:38:05.208389 12560 net.cpp:122] Setting up drop7_emotion
I0414 02:38:05.208405 12560 net.cpp:129] Top shape: 64 4096 (262144)
I0414 02:38:05.208416 12560 net.cpp:137] Memory required for data: 945336064
I0414 02:38:05.208427 12560 layer_factory.hpp:77] Creating layer fc8_emotion
I0414 02:38:05.208444 12560 net.cpp:84] Creating Layer fc8_emotion
I0414 02:38:05.208456 12560 net.cpp:406] fc8_emotion <- fc7_emotion
I0414 02:38:05.208472 12560 net.cpp:380] fc8_emotion -> fc8_emotion
I0414 02:38:05.208817 12560 net.cpp:122] Setting up fc8_emotion
I0414 02:38:05.208832 12560 net.cpp:129] Top shape: 64 5 (320)
I0414 02:38:05.208843 12560 net.cpp:137] Memory required for data: 945337344
I0414 02:38:05.208858 12560 layer_factory.hpp:77] Creating layer personClassloss
I0414 02:38:05.208874 12560 net.cpp:84] Creating Layer personClassloss
I0414 02:38:05.208886 12560 net.cpp:406] personClassloss <- fc8_person
I0414 02:38:05.208899 12560 net.cpp:406] personClassloss <- personclass
I0414 02:38:05.208914 12560 net.cpp:380] personClassloss -> personClassloss
…
I0414 02:38:05.210404 12560 solver.cpp:173] Creating test net (#0) specified by net file: train_val.prototxt
I0414 02:38:05.210461 12560 net.cpp:294] The NetState phase (1) differed from the phase (0) specified by a rule in layer data
I0414 02:38:05.210808 12560 net.cpp:51] Initializing net from parameters: 
name: "AlexNet"
state {
  phase: TEST
}
layer {
  name: "data"
  type: "HDF5Data"
  top: "data"
  top: "personclass"
  top: "emotionclass"
  include {
    phase: TEST
  }
  hdf5_data_param {
    source: "../../Source/AlexPretrain/all_info_large_5emo_testSession.txt"
    batch_size: 32
  }
}
layer {
  name: "conv1"
  type: "Convolution"
  bottom: "data"
  top: "conv1"
  param {
    lr_mult: 1
    decay_mult: 1
  }
  param {
    lr_mult: 2
    decay_mult: 0
  }
  convolution_param {
    num_output: 96
    kernel_size: 11
    stride: 2
    weight_filler {
      type: "xavier"
      std: 0.01
    }
    bias_filler {
      type: "constant"
      value: 0
    }
  }
}
layer {
  name: "relu1"
  type: "ReLU"
  bottom: "conv1"
  top: "conv1"
}
layer {
  name: "norm1"
  type: "LRN"
  bottom: "conv1"
  top: "norm1"
  lrn_param {
    local_size: 5
    alpha: 0.0001
    beta: 0.75
  }
}
layer {
  name: "pool1"
  type: "Pooling"
  bottom: "norm1"
  top: "pool1"
  pooling_param {
    pool: MAX
    kernel_size: 3
    stride: 2
  }
}
layer {
  name: "conv2"
  type: "Convolution"
  bottom: "pool1"
  top: "conv2"
  param {
    lr_mult: 1
    decay_mult: 1
  }
  param {
    lr_mult: 2
    decay_mult: 0
  }
  convolution_param {
    num_output: 256
    pad: 2
    kernel_size: 5
    weight_filler {
      type: "xavier"
      std: 0.01
    }
    bias_filler {
      type: "constant"
      value: 0.1
    }
  }
}
layer {
  name: "relu2"
  type: "ReLU"
  bottom: "conv2"
  top: "conv2"
}
layer {
  name: "norm2"
  type: "LRN"
  bottom: "conv2"
  top: "norm2"
  lrn_param {
    local_size: 5
    alpha: 0.0001
    beta: 0.75
  }
}
layer {
  name: "pool2"
  type: "Pooling"
  bottom: "norm2"
  top: "pool2"
  pooling_param {
    pool: MAX
    kernel_size: 3
    stride: 2
  }
}
layer {
  name: "conv3"
  type: "Convolution"
  bottom: "pool2"
  top: "conv3"
  param {
    lr_mult: 1
    decay_mult: 1
  }
  param {
    lr_mult: 2
    decay_mult: 0
  }
  convolution_param {
    num_output: 384
    pad: 1
    kernel_size: 3
    weight_filler {
      type: "xavier"
      std: 0.01
    }
    bias_filler {
      type: "constant"
      value: 0
    }
  }
}
layer {
  name: "relu3"
  type: "ReLU"
  bottom: "conv3"
  top: "conv3"
}
layer {
  name: "conv4"
  type: "Convolution"
  bottom: "conv3"
  top: "conv4"
  param {
    lr_mult: 1
    decay_mult: 1
  }
  param {
    lr_mult: 2
    decay_mult: 0
  }
  convolution_param {
    num_output: 384
    pad: 1
    kernel_size: 3
    weight_filler {
      type: "xavier"
      std: 0.01
    }
    bias_filler {
      type: "constant"
      value: 0.1
    }
  }
}
layer {
  name: "relu4"
  type: "ReLU"
  bottom: "conv4"
  top: "conv4"
}
layer {
  name: "conv5"
  type: "Convolution"
  bottom: "conv4"
  top: "conv5"
  param {
    lr_mult: 1
    decay_mult: 1
  }
  param {
    lr_mult: 2
    decay_mult: 0
  }
  convolution_param {
    num_output: 256
    pad: 1
    kernel_size: 3
    weight_filler {
      type: "xavier"
      std: 0.01
    }
    bias_filler {
      type: "constant"
      value: 0.1
    }
  }
}
layer {
  name: "relu5"
  type: "ReLU"
  bottom: "conv5"
  top: "conv5"
}
layer {
  name: "pool5"
  type: "Pooling"
  bottom: "conv5"
  top: "pool5"
  pooling_param {
    pool: MAX
    kernel_size: 3
    stride: 2
  }
}
layer {
  name: "fc6_person"
  type: "InnerProduct"
  bottom: "pool5"
  top: "fc6_person"
  param {
    lr_mult: 1
    decay_mult: 1
  }
  param {
    lr_mult: 2
    decay_mult: 0
  }
  inner_product_param {
    num_output: 4096
    weight_filler {
      type: "xavier"
      std: 0.005
    }
    bias_filler {
      type: "constant"
      value: 0.1
    }
  }
}
layer {
  name: "relu6_person"
  type: "ReLU"
  bottom: "fc6_person"
  top: "fc6_person"
}
layer {
  name: "drop6_person"
  type: "Dropout"
  bottom: "fc6_person"
  top: "fc6_person"
  dropout_param {
    dropout_ratio: 0.5
  }
}
layer {
  name: "fc7_person"
  type: "InnerProduct"
  bottom: "fc6_person"
  top: "fc7_person"
  param {
    lr_mult: 1
    decay_mult: 1
  }
  param {
    lr_mult: 2
    decay_mult: 0
  }
  inner_product_param {
    num_output: 4096
    weight_filler {
      type: "xavier"
      std: 0.005
    }
    bias_filler {
      type: "constant"
      value: 0.1
    }
  }
}
layer {
  name: "relu7_person"
  type: "ReLU"
  bottom: "fc7_person"
  top: "fc7_person"
}
layer {
  name: "drop7_person"
  type: "Dropout"
  bottom: "fc7_person"
  top: "fc7_person"
  dropout_param {
    dropout_ratio: 0.5
  }
}
layer {
  name: "fc8_person"
  type: "InnerProduct"
  bottom: "fc7_person"
  top: "fc8_person"
  param {
    lr_mult: 1
    decay_mult: 1
  }
  param {
    lr_mult: 2
    decay_mult: 0
  }
  inner_product_param {
    num_output: 65
    weight_filler {
      type: "xavier"
      std: 0.01
    }
    bias_filler {
      type: "constant"
      value: 0
    }
  }
}
layer {
  name: "fc6_emotion"
  type: "InnerProduct"
  bottom: "pool5"
  top: "fc6_emotion"
  param {
    lr_mult: 1
    decay_mult: 1
  }
  param {
    lr_mult: 2
    decay_mult: 0
  }
  inner_product_param {
    num_output: 4096
    weight_filler {
      type: "xavier"
      std: 0.005
    }
    bias_filler {
      type: "constant"
      value: 0.1
    }
  }
}
layer {
  name: "relu6_emotion"
  type: "ReLU"
  bottom: "fc6_emotion"
  top: "fc6_emotion"
}
layer {
  name: "drop6_emotion"
  type: "Dropout"
  bottom: "fc6_emotion"
  top: "fc6_emotion"
  dropout_param {
    dropout_ratio: 0.5
  }
}
layer {
  name: "fc7_emotion"
  type: "InnerProduct"
  bottom: "fc6_emotion"
  top: "fc7_emotion"
  param {
    lr_mult: 1
    decay_mult: 1
  }
  param {
    lr_mult: 2
    decay_mult: 0
  }
  inner_product_param {
    num_output: 4096
    weight_filler {
      type: "xavier"
      std: 0.005
    }
    bias_filler {
      type: "constant"
      value: 0.1
    }
  }
}
layer {
  name: "relu7_emotion"
  type: "ReLU"
  bottom: "fc7_emotion"
  top: "fc7_emotion"
}
layer {
  name: "drop7_emotion"
  type: "Dropout"
  bottom: "fc7_emotion"
  top: "fc7_emotion"
  dropout_param {
    dropout_ratio: 0.5
  }
}
layer {
  name: "fc8_emotion"
  type: "InnerProduct"
  bottom: "fc7_emotion"
  top: "fc8_emotion"
  param {
    lr_mult: 1
    decay_mult: 1
  }
  param {
    lr_mult: 2
    decay_mult: 0
  }
  inner_product_param {
    num_output: 5
    weight_filler {
      type: "xavier"
      std: 0.01
    }
    bias_filler {
      type: "constant"
      value: 0
    }
  }
}
layer {
  name: "person_accuracy"
  type: "Accuracy"
  bottom: "fc8_person"
  bottom: "personclass"
  top: "person_accuracy"
  include {
    phase: TEST
  }
}
layer {
  name: "personClassloss"
  type: "SoftmaxWithLoss"
  bottom: "fc8_person"
  bottom: "personclass"
  top: "personClassloss"
}
layer {
  name: "emotion_accuracy"
  type: "Accuracy"
  bottom: "fc8_emotion"
  bottom: "emotionclass"
  top: "emotion_accuracy"
  include {
    phase: TEST
  }
}
layer {
  name: "emotionClassloss"
  type: "SoftmaxWithLoss"
  bottom: "fc8_emotion"
  bottom: "emotionclass"
  top: "emotionClassloss"
}
I0414 02:38:05.211009 12560 layer_factory.hpp:77] Creating layer data
I0414 02:38:05.211027 12560 net.cpp:84] Creating Layer data
I0414 02:38:05.211041 12560 net.cpp:380] data -> data
I0414 02:38:05.211058 12560 net.cpp:380] data -> personclass
I0414 02:38:05.211076 12560 net.cpp:380] data -> emotionclass
I0414 02:38:05.211093 12560 hdf5_data_layer.cpp:80] Loading list of HDF5 filenames from: ../../Source/AlexPretrain/all_info_large_5emo_testSession.txt
I0414 02:38:05.224788 12560 hdf5_data_layer.cpp:94] Number of HDF5 files: 1
I0414 02:38:07.467818 12560 net.cpp:122] Setting up data
I0414 02:38:07.467880 12560 net.cpp:129] Top shape: 32 3 158 158 (2396544)
I0414 02:38:07.467895 12560 net.cpp:129] Top shape: 32 (32)
I0414 02:38:07.467910 12560 net.cpp:129] Top shape: 32 (32)
I0414 02:38:07.467921 12560 net.cpp:137] Memory required for data: 9586432
I0414 02:38:07.467939 12560 layer_factory.hpp:77] Creating layer personclass_data_1_split
I0414 02:38:07.467967 12560 net.cpp:84] Creating Layer personclass_data_1_split
I0414 02:38:07.467981 12560 net.cpp:406] personclass_data_1_split <- personclass
I0414 02:38:07.468000 12560 net.cpp:380] personclass_data_1_split -> personclass_data_1_split_0
I0414 02:38:07.468022 12560 net.cpp:380] personclass_data_1_split -> personclass_data_1_split_1
I0414 02:38:07.468076 12560 net.cpp:122] Setting up personclass_data_1_split
I0414 02:38:07.468091 12560 net.cpp:129] Top shape: 32 (32)
I0414 02:38:07.468104 12560 net.cpp:129] Top shape: 32 (32)
I0414 02:38:07.468116 12560 net.cpp:137] Memory required for data: 9586688
I0414 02:38:07.468127 12560 layer_factory.hpp:77] Creating layer emotionclass_data_2_split
I0414 02:38:07.468142 12560 net.cpp:84] Creating Layer emotionclass_data_2_split
I0414 02:38:07.468154 12560 net.cpp:406] emotionclass_data_2_split <- emotionclass
I0414 02:38:07.468168 12560 net.cpp:380] emotionclass_data_2_split -> emotionclass_data_2_split_0
I0414 02:38:07.468200 12560 net.cpp:380] emotionclass_data_2_split -> emotionclass_data_2_split_1
I0414 02:38:07.468250 12560 net.cpp:122] Setting up emotionclass_data_2_split
I0414 02:38:07.468264 12560 net.cpp:129] Top shape: 32 (32)
I0414 02:38:07.468277 12560 net.cpp:129] Top shape: 32 (32)
I0414 02:38:07.468303 12560 net.cpp:137] Memory required for data: 9586944
I0414 02:38:07.468315 12560 layer_factory.hpp:77] Creating layer conv1
I0414 02:38:07.468338 12560 net.cpp:84] Creating Layer conv1
I0414 02:38:07.468350 12560 net.cpp:406] conv1 <- data
I0414 02:38:07.468366 12560 net.cpp:380] conv1 -> conv1
I0414 02:38:07.469022 12560 net.cpp:122] Setting up conv1
I0414 02:38:07.469039 12560 net.cpp:129] Top shape: 32 96 74 74 (16822272)
I0414 02:38:07.469050 12560 net.cpp:137] Memory required for data: 76876032
I0414 02:38:07.469071 12560 layer_factory.hpp:77] Creating layer relu1
I0414 02:38:07.469089 12560 net.cpp:84] Creating Layer relu1
I0414 02:38:07.469100 12560 net.cpp:406] relu1 <- conv1
I0414 02:38:07.469115 12560 net.cpp:367] relu1 -> conv1 (in-place)
I0414 02:38:07.469130 12560 net.cpp:122] Setting up relu1
I0414 02:38:07.469143 12560 net.cpp:129] Top shape: 32 96 74 74 (16822272)
I0414 02:38:07.469154 12560 net.cpp:137] Memory required for data: 144165120
I0414 02:38:07.469166 12560 layer_factory.hpp:77] Creating layer norm1
I0414 02:38:07.469182 12560 net.cpp:84] Creating Layer norm1
I0414 02:38:07.469193 12560 net.cpp:406] norm1 <- conv1
I0414 02:38:07.469208 12560 net.cpp:380] norm1 -> norm1
I0414 02:38:07.469260 12560 net.cpp:122] Setting up norm1
I0414 02:38:07.469275 12560 net.cpp:129] Top shape: 32 96 74 74 (16822272)
I0414 02:38:07.469287 12560 net.cpp:137] Memory required for data: 211454208
I0414 02:38:07.469298 12560 layer_factory.hpp:77] Creating layer pool1
I0414 02:38:07.469314 12560 net.cpp:84] Creating Layer pool1
I0414 02:38:07.469326 12560 net.cpp:406] pool1 <- norm1
I0414 02:38:07.469341 12560 net.cpp:380] pool1 -> pool1
I0414 02:38:07.469390 12560 net.cpp:122] Setting up pool1
I0414 02:38:07.469405 12560 net.cpp:129] Top shape: 32 96 37 37 (4205568)
I0414 02:38:07.469416 12560 net.cpp:137] Memory required for data: 228276480
I0414 02:38:07.469429 12560 layer_factory.hpp:77] Creating layer conv2
I0414 02:38:07.469445 12560 net.cpp:84] Creating Layer conv2
I0414 02:38:07.469457 12560 net.cpp:406] conv2 <- pool1
I0414 02:38:07.469472 12560 net.cpp:380] conv2 -> conv2
I0414 02:38:07.477373 12560 net.cpp:122] Setting up conv2
I0414 02:38:07.477434 12560 net.cpp:129] Top shape: 32 256 37 37 (11214848)
I0414 02:38:07.477447 12560 net.cpp:137] Memory required for data: 273135872
I0414 02:38:07.477469 12560 layer_factory.hpp:77] Creating layer relu2
I0414 02:38:07.477493 12560 net.cpp:84] Creating Layer relu2
I0414 02:38:07.477505 12560 net.cpp:406] relu2 <- conv2
I0414 02:38:07.477521 12560 net.cpp:367] relu2 -> conv2 (in-place)
I0414 02:38:07.477538 12560 net.cpp:122] Setting up relu2
I0414 02:38:07.477552 12560 net.cpp:129] Top shape: 32 256 37 37 (11214848)
I0414 02:38:07.477563 12560 net.cpp:137] Memory required for data: 317995264
I0414 02:38:07.477574 12560 layer_factory.hpp:77] Creating layer norm2
I0414 02:38:07.477591 12560 net.cpp:84] Creating Layer norm2
I0414 02:38:07.477602 12560 net.cpp:406] norm2 <- conv2
I0414 02:38:07.477617 12560 net.cpp:380] norm2 -> norm2
I0414 02:38:07.477669 12560 net.cpp:122] Setting up norm2
I0414 02:38:07.477684 12560 net.cpp:129] Top shape: 32 256 37 37 (11214848)
I0414 02:38:07.477695 12560 net.cpp:137] Memory required for data: 362854656
I0414 02:38:07.477707 12560 layer_factory.hpp:77] Creating layer pool2
I0414 02:38:07.477722 12560 net.cpp:84] Creating Layer pool2
I0414 02:38:07.477735 12560 net.cpp:406] pool2 <- norm2
I0414 02:38:07.477748 12560 net.cpp:380] pool2 -> pool2
I0414 02:38:07.477798 12560 net.cpp:122] Setting up pool2
I0414 02:38:07.477814 12560 net.cpp:129] Top shape: 32 256 18 18 (2654208)
I0414 02:38:07.477825 12560 net.cpp:137] Memory required for data: 373471488
I0414 02:38:07.477836 12560 layer_factory.hpp:77] Creating layer conv3
I0414 02:38:07.477871 12560 net.cpp:84] Creating Layer conv3
I0414 02:38:07.477883 12560 net.cpp:406] conv3 <- pool2
I0414 02:38:07.477900 12560 net.cpp:380] conv3 -> conv3
I0414 02:38:07.489512 12560 net.cpp:122] Setting up conv3
I0414 02:38:07.489583 12560 net.cpp:129] Top shape: 32 384 18 18 (3981312)
I0414 02:38:07.489619 12560 net.cpp:137] Memory required for data: 389396736
I0414 02:38:07.489645 12560 layer_factory.hpp:77] Creating layer relu3
I0414 02:38:07.489665 12560 net.cpp:84] Creating Layer relu3
I0414 02:38:07.489678 12560 net.cpp:406] relu3 <- conv3
I0414 02:38:07.489696 12560 net.cpp:367] relu3 -> conv3 (in-place)
I0414 02:38:07.489713 12560 net.cpp:122] Setting up relu3
I0414 02:38:07.489727 12560 net.cpp:129] Top shape: 32 384 18 18 (3981312)
I0414 02:38:07.489739 12560 net.cpp:137] Memory required for data: 405321984
I0414 02:38:07.489750 12560 layer_factory.hpp:77] Creating layer conv4
I0414 02:38:07.489770 12560 net.cpp:84] Creating Layer conv4
I0414 02:38:07.489781 12560 net.cpp:406] conv4 <- conv3
I0414 02:38:07.489797 12560 net.cpp:380] conv4 -> conv4
I0414 02:38:07.507030 12560 net.cpp:122] Setting up conv4
I0414 02:38:07.507109 12560 net.cpp:129] Top shape: 32 384 18 18 (3981312)
I0414 02:38:07.507122 12560 net.cpp:137] Memory required for data: 421247232
I0414 02:38:07.507141 12560 layer_factory.hpp:77] Creating layer relu4
I0414 02:38:07.507163 12560 net.cpp:84] Creating Layer relu4
I0414 02:38:07.507176 12560 net.cpp:406] relu4 <- conv4
I0414 02:38:07.507192 12560 net.cpp:367] relu4 -> conv4 (in-place)
I0414 02:38:07.507211 12560 net.cpp:122] Setting up relu4
I0414 02:38:07.507225 12560 net.cpp:129] Top shape: 32 384 18 18 (3981312)
I0414 02:38:07.507236 12560 net.cpp:137] Memory required for data: 437172480
I0414 02:38:07.507247 12560 layer_factory.hpp:77] Creating layer conv5
I0414 02:38:07.507267 12560 net.cpp:84] Creating Layer conv5
I0414 02:38:07.507279 12560 net.cpp:406] conv5 <- conv4
I0414 02:38:07.507294 12560 net.cpp:380] conv5 -> conv5
I0414 02:38:07.518921 12560 net.cpp:122] Setting up conv5
I0414 02:38:07.518990 12560 net.cpp:129] Top shape: 32 256 18 18 (2654208)
I0414 02:38:07.519002 12560 net.cpp:137] Memory required for data: 447789312
I0414 02:38:07.519029 12560 layer_factory.hpp:77] Creating layer relu5
I0414 02:38:07.519054 12560 net.cpp:84] Creating Layer relu5
I0414 02:38:07.519068 12560 net.cpp:406] relu5 <- conv5
I0414 02:38:07.519084 12560 net.cpp:367] relu5 -> conv5 (in-place)
I0414 02:38:07.519104 12560 net.cpp:122] Setting up relu5
I0414 02:38:07.519117 12560 net.cpp:129] Top shape: 32 256 18 18 (2654208)
I0414 02:38:07.519129 12560 net.cpp:137] Memory required for data: 458406144
I0414 02:38:07.519140 12560 layer_factory.hpp:77] Creating layer pool5
I0414 02:38:07.519155 12560 net.cpp:84] Creating Layer pool5
I0414 02:38:07.519166 12560 net.cpp:406] pool5 <- conv5
I0414 02:38:07.519181 12560 net.cpp:380] pool5 -> pool5
I0414 02:38:07.519239 12560 net.cpp:122] Setting up pool5
I0414 02:38:07.519255 12560 net.cpp:129] Top shape: 32 256 9 9 (663552)
I0414 02:38:07.519266 12560 net.cpp:137] Memory required for data: 461060352
I0414 02:38:07.519279 12560 layer_factory.hpp:77] Creating layer pool5_pool5_0_split
I0414 02:38:07.519294 12560 net.cpp:84] Creating Layer pool5_pool5_0_split
I0414 02:38:07.519304 12560 net.cpp:406] pool5_pool5_0_split <- pool5
I0414 02:38:07.519320 12560 net.cpp:380] pool5_pool5_0_split -> pool5_pool5_0_split_0
I0414 02:38:07.519336 12560 net.cpp:380] pool5_pool5_0_split -> pool5_pool5_0_split_1
I0414 02:38:07.519387 12560 net.cpp:122] Setting up pool5_pool5_0_split
I0414 02:38:07.519402 12560 net.cpp:129] Top shape: 32 256 9 9 (663552)
I0414 02:38:07.519415 12560 net.cpp:129] Top shape: 32 256 9 9 (663552)
I0414 02:38:07.519426 12560 net.cpp:137] Memory required for data: 466368768
I0414 02:38:07.519438 12560 layer_factory.hpp:77] Creating layer fc6_person
I0414 02:38:07.519454 12560 net.cpp:84] Creating Layer fc6_person
I0414 02:38:07.519466 12560 net.cpp:406] fc6_person <- pool5_pool5_0_split_0
I0414 02:38:07.519501 12560 net.cpp:380] fc6_person -> fc6_person
I0414 02:38:08.578058 12560 net.cpp:122] Setting up fc6_person
I0414 02:38:08.578153 12560 net.cpp:129] Top shape: 32 4096 (131072)
I0414 02:38:08.578167 12560 net.cpp:137] Memory required for data: 466893056
I0414 02:38:08.578197 12560 layer_factory.hpp:77] Creating layer relu6_person
I0414 02:38:08.578269 12560 net.cpp:84] Creating Layer relu6_person
I0414 02:38:08.578285 12560 net.cpp:406] relu6_person <- fc6_person
I0414 02:38:08.578308 12560 net.cpp:367] relu6_person -> fc6_person (in-place)
I0414 02:38:08.578331 12560 net.cpp:122] Setting up relu6_person
I0414 02:38:08.578346 12560 net.cpp:129] Top shape: 32 4096 (131072)
I0414 02:38:08.578356 12560 net.cpp:137] Memory required for data: 467417344
I0414 02:38:08.578368 12560 layer_factory.hpp:77] Creating layer drop6_person
I0414 02:38:08.578385 12560 net.cpp:84] Creating Layer drop6_person
I0414 02:38:08.578397 12560 net.cpp:406] drop6_person <- fc6_person
I0414 02:38:08.578411 12560 net.cpp:367] drop6_person -> fc6_person (in-place)
I0414 02:38:08.578454 12560 net.cpp:122] Setting up drop6_person
I0414 02:38:08.578469 12560 net.cpp:129] Top shape: 32 4096 (131072)
I0414 02:38:08.578480 12560 net.cpp:137] Memory required for data: 467941632
I0414 02:38:08.578492 12560 layer_factory.hpp:77] Creating layer fc7_person
I0414 02:38:08.578508 12560 net.cpp:84] Creating Layer fc7_person
I0414 02:38:08.578521 12560 net.cpp:406] fc7_person <- fc6_person
I0414 02:38:08.578536 12560 net.cpp:380] fc7_person -> fc7_person
I0414 02:38:08.793647 12560 net.cpp:122] Setting up fc7_person
I0414 02:38:08.793746 12560 net.cpp:129] Top shape: 32 4096 (131072)
I0414 02:38:08.793761 12560 net.cpp:137] Memory required for data: 468465920
I0414 02:38:08.793789 12560 layer_factory.hpp:77] Creating layer relu7_person
I0414 02:38:08.793818 12560 net.cpp:84] Creating Layer relu7_person
I0414 02:38:08.793834 12560 net.cpp:406] relu7_person <- fc7_person
I0414 02:38:08.793858 12560 net.cpp:367] relu7_person -> fc7_person (in-place)
I0414 02:38:08.793879 12560 net.cpp:122] Setting up relu7_person
I0414 02:38:08.793893 12560 net.cpp:129] Top shape: 32 4096 (131072)
I0414 02:38:08.793905 12560 net.cpp:137] Memory required for data: 468990208
I0414 02:38:08.793916 12560 layer_factory.hpp:77] Creating layer drop7_person
I0414 02:38:08.793933 12560 net.cpp:84] Creating Layer drop7_person
I0414 02:38:08.793946 12560 net.cpp:406] drop7_person <- fc7_person
I0414 02:38:08.793959 12560 net.cpp:367] drop7_person -> fc7_person (in-place)
I0414 02:38:08.794000 12560 net.cpp:122] Setting up drop7_person
I0414 02:38:08.794015 12560 net.cpp:129] Top shape: 32 4096 (131072)
I0414 02:38:08.794028 12560 net.cpp:137] Memory required for data: 469514496
I0414 02:38:08.794039 12560 layer_factory.hpp:77] Creating layer fc8_person
I0414 02:38:08.794056 12560 net.cpp:84] Creating Layer fc8_person
I0414 02:38:08.794068 12560 net.cpp:406] fc8_person <- fc7_person
I0414 02:38:08.794085 12560 net.cpp:380] fc8_person -> fc8_person
I0414 02:38:08.798487 12560 net.cpp:122] Setting up fc8_person
I0414 02:38:08.798538 12560 net.cpp:129] Top shape: 32 65 (2080)
I0414 02:38:08.798550 12560 net.cpp:137] Memory required for data: 469522816
I0414 02:38:08.798569 12560 layer_factory.hpp:77] Creating layer fc8_person_fc8_person_0_split
I0414 02:38:08.798589 12560 net.cpp:84] Creating Layer fc8_person_fc8_person_0_split
I0414 02:38:08.798602 12560 net.cpp:406] fc8_person_fc8_person_0_split <- fc8_person
I0414 02:38:08.798619 12560 net.cpp:380] fc8_person_fc8_person_0_split -> fc8_person_fc8_person_0_split_0
I0414 02:38:08.798640 12560 net.cpp:380] fc8_person_fc8_person_0_split -> fc8_person_fc8_person_0_split_1
I0414 02:38:08.798693 12560 net.cpp:122] Setting up fc8_person_fc8_person_0_split
I0414 02:38:08.798709 12560 net.cpp:129] Top shape: 32 65 (2080)
I0414 02:38:08.798722 12560 net.cpp:129] Top shape: 32 65 (2080)
I0414 02:38:08.798733 12560 net.cpp:137] Memory required for data: 469539456
I0414 02:38:08.798745 12560 layer_factory.hpp:77] Creating layer fc6_emotion
I0414 02:38:08.798777 12560 net.cpp:84] Creating Layer fc6_emotion
I0414 02:38:08.798789 12560 net.cpp:406] fc6_emotion <- pool5_pool5_0_split_1
I0414 02:38:08.798805 12560 net.cpp:380] fc6_emotion -> fc6_emotion
I0414 02:38:10.800807 12560 net.cpp:122] Setting up fc6_emotion
I0414 02:38:11.941885 12560 net.cpp:129] Top shape: 32 4096 (131072)
I0414 02:38:13.041229 12560 net.cpp:137] Memory required for data: 470063744
I0414 02:38:13.041273 12560 layer_factory.hpp:77] Creating layer relu6_emotion
I0414 02:38:13.041296 12560 net.cpp:84] Creating Layer relu6_emotion
I0414 02:38:13.041311 12560 net.cpp:406] relu6_emotion <- fc6_emotion
I0414 02:38:13.041327 12560 net.cpp:367] relu6_emotion -> fc6_emotion (in-place)
I0414 02:38:13.041348 12560 net.cpp:122] Setting up relu6_emotion
I0414 02:38:13.041363 12560 net.cpp:129] Top shape: 32 4096 (131072)
I0414 02:38:13.041374 12560 net.cpp:137] Memory required for data: 470588032
I0414 02:38:13.041386 12560 layer_factory.hpp:77] Creating layer drop6_emotion
I0414 02:38:13.041402 12560 net.cpp:84] Creating Layer drop6_emotion
I0414 02:38:13.041414 12560 net.cpp:406] drop6_emotion <- fc6_emotion
I0414 02:38:13.041429 12560 net.cpp:367] drop6_emotion -> fc6_emotion (in-place)
I0414 02:38:13.041510 12560 net.cpp:122] Setting up drop6_emotion
I0414 02:38:13.041527 12560 net.cpp:129] Top shape: 32 4096 (131072)
I0414 02:38:13.041538 12560 net.cpp:137] Memory required for data: 471112320
I0414 02:38:13.041549 12560 layer_factory.hpp:77] Creating layer fc7_emotion
I0414 02:38:13.041566 12560 net.cpp:84] Creating Layer fc7_emotion
I0414 02:38:13.041579 12560 net.cpp:406] fc7_emotion <- fc6_emotion
I0414 02:38:13.041594 12560 net.cpp:380] fc7_emotion -> fc7_emotion
I0414 02:38:13.252260 12560 net.cpp:122] Setting up fc7_emotion
I0414 02:38:13.252354 12560 net.cpp:129] Top shape: 32 4096 (131072)
I0414 02:38:13.252368 12560 net.cpp:137] Memory required for data: 471636608
I0414 02:38:13.252398 12560 layer_factory.hpp:77] Creating layer relu7_emotion
I0414 02:38:13.252425 12560 net.cpp:84] Creating Layer relu7_emotion
I0414 02:38:13.252439 12560 net.cpp:406] relu7_emotion <- fc7_emotion
I0414 02:38:13.252456 12560 net.cpp:367] relu7_emotion -> fc7_emotion (in-place)
I0414 02:38:13.252475 12560 net.cpp:122] Setting up relu7_emotion
I0414 02:38:13.252490 12560 net.cpp:129] Top shape: 32 4096 (131072)
I0414 02:38:13.252501 12560 net.cpp:137] Memory required for data: 472160896
I0414 02:38:13.252512 12560 layer_factory.hpp:77] Creating layer drop7_emotion
I0414 02:38:13.252538 12560 net.cpp:84] Creating Layer drop7_emotion
I0414 02:38:13.252550 12560 net.cpp:406] drop7_emotion <- fc7_emotion
I0414 02:38:13.252564 12560 net.cpp:367] drop7_emotion -> fc7_emotion (in-place)
I0414 02:38:13.252605 12560 net.cpp:122] Setting up drop7_emotion
I0414 02:38:13.252620 12560 net.cpp:129] Top shape: 32 4096 (131072)
I0414 02:38:13.252632 12560 net.cpp:137] Memory required for data: 472685184
I0414 02:38:13.252645 12560 layer_factory.hpp:77] Creating layer fc8_emotion
I0414 02:38:13.252661 12560 net.cpp:84] Creating Layer fc8_emotion
I0414 02:38:13.252673 12560 net.cpp:406] fc8_emotion <- fc7_emotion
I0414 02:38:13.252689 12560 net.cpp:380] fc8_emotion -> fc8_emotion
I0414 02:38:13.253077 12560 net.cpp:122] Setting up fc8_emotion
I0414 02:38:13.253093 12560 net.cpp:129] Top shape: 32 5 (160)
I0414 02:38:13.253104 12560 net.cpp:137] Memory required for data: 472685824
I0414 02:38:13.253120 12560 layer_factory.hpp:77] Creating layer fc8_emotion_fc8_emotion_0_split
I0414 02:38:13.253137 12560 net.cpp:84] Creating Layer fc8_emotion_fc8_emotion_0_split
I0414 02:38:13.253149 12560 net.cpp:406] fc8_emotion_fc8_emotion_0_split <- fc8_emotion
I0414 02:38:13.253165 12560 net.cpp:380] fc8_emotion_fc8_emotion_0_split -> fc8_emotion_fc8_emotion_0_split_0
I0414 02:38:13.253181 12560 net.cpp:380] fc8_emotion_fc8_emotion_0_split -> fc8_emotion_fc8_emotion_0_split_1
I0414 02:38:13.253234 12560 net.cpp:122] Setting up fc8_emotion_fc8_emotion_0_split
I0414 02:38:13.253249 12560 net.cpp:129] Top shape: 32 5 (160)
I0414 02:38:13.253262 12560 net.cpp:129] Top shape: 32 5 (160)
I0414 02:38:13.253293 12560 net.cpp:137] Memory required for data: 472687104
I0414 02:38:13.253305 12560 layer_factory.hpp:77] Creating layer person_accuracy
I0414 02:38:14.398407 12560 net.cpp:84] Creating Layer person_accuracy
I0414 02:38:14.398440 12560 net.cpp:406] person_accuracy <- fc8_person_fc8_person_0_split_0
I0414 02:38:14.398471 12560 net.cpp:406] person_accuracy <- personclass_data_1_split_0
…
